lab14/checkpoints/LunarLander.pth (torch, 75141 bytes, 6 tensors)

layers.0.weight f4 [128, 8]
0.41427937 0.45972952 -0.14425789 -0.36266184 0.2683112 -0.3029226 -0.3347837 0.27270177
0.06949985 0.2363401 -0.3357381 -0.33368516 -0.15207586 0.04865652 -0.14606968 0.14740726
0.3208501 -1.168639 0.40360212 0.30876023 -0.29907566 0.3555961 -0.30136198 -0.29839292
0.024529947 0.18155937 0.36261967 -0.00020580737 -0.8818033 0.8773178 -0.11798846 0.17171548
0.018134406 0.017377792 -1.3538369 -0.29623735 -0.44005197 0.008290628 0.40287897 -0.1375018
-1.211221 0.0948809 0.24032831 -0.23629881 0.90750694 -0.09133287 0.1637356 0.35597673
-0.22883485 0.40339172 -0.46641582 -0.5273643 0.39897773 -0.07869712 0.25839147 0.3444809
-0.35402486 0.43609425 0.00812466 -0.08347268 0.1973615 -0.2345555 0.14730962 -0.07876025
0.42509082 -0.13025802 -0.01905481 0.3909875 1.1238003 -0.06094706 -0.684008 0.3461195
0.84088385 0.09807285 0.10234951 0.29503766 -0.3891757 -0.78883713 -0.19700827 -0.021112137
1.8213362 -0.27302572 -0.39700028 0.8278167 1.3060774 -0.20364888 0.083307326 -0.045813058
0.10519013 0.78892714 -0.06808433 -0.37180352 -0.37704465 -0.31052443 -0.39874053 0.37585703
-0.1877847 0.42732376 -0.18205689 0.0009094047 -0.12241989 -0.29993367 0.08424005 0.06514039
-0.26861718 0.055418283 -0.089827485 -0.26028782 -0.44311485 0.050428044 0.30803475 0.3817569
0.2748141 0.2315379 -0.2128941 -0.071375094 0.16660802 0.04018314 0.1491511 0.5503303
0.18651566 0.12528104 -0.15482393 -0.5522654 0.22378457 0.16239665 0.06471989 0.26720348
0.09144847 0.113880396 -0.15958151 -0.006523792 0.12612206 -0.048857957 0.025761547 -0.041500144
-0.0107558 0.56911004 -0.21308152 0.1757272 -0.020943416 -0.092484355 0.061818913 0.20799759
0.24995066 0.2943331 -0.18184583 0.08871569 -0.30758613 -0.2991205 0.2382942 0.24657774
0.16798125 0.25717667 0.24359693 -0.38614562 -0.15492404 -0.2538608 0.115050845 0.22417103
-0.23261346 0.13171117 0.0821619 -0.49347317 0.0024091157 -0.17233287 -0.1580749 0.63144654
-0.086155005 0.39477298 -0.8560583 -0.039990656 -0.22095078 -0.041218787 0.060694985 0.23859839
-0.13775547 0.7252674 -0.29432836 -0.17415868 -0.11177388 -0.08996187 0.1549331 0.46371382
0.062537335 -0.42831716 -0.3920804 -0.13858797 0.00144127 0.3919179 0.28110602 0.15018499
-0.41949576 0.28348604 -0.94526994 -0.28987548 -0.30143577 -0.5631119 0.10593759 0.10039909
-0.25143138 0.6563237 0.34195864 0.10651638 -0.3852726 -0.1887735 -0.29295826 0.3843947
-0.08857689 -0.23087169 -0.22210817 0.20180887 -0.8861505 0.23403282 -0.66849905 0.3004182
-0.1880126 0.40730825 0.2411497 -0.3340183 0.13392797 -0.43447828 0.042814713 -0.25164565
0.3430174 -0.06838913 -0.17110498 0.27747414 1.1630183 0.013060817 -0.45172283 0.070453994
0.25562593 -0.12852903 0.19693352 0.2900611 -0.4661591 -0.7513687 -0.22288947 0.6803682
0.38703054 0.09595532 -0.11014415 -0.003914046 0.04105357 -0.2708438 -0.23191445 0.05466023
0.29181218 0.15569073 0.11375751 -0.27874833 -0.14670356 -0.28710383 -0.44364867 0.18911079
00000000: 6d1c d43e ab61 eb3e 57b8 13be d0ae b9be
00000010: 1660 893e ac18 9bbe c568 abbe 919f 8b3e
00000020: f055 8e3d 2403 723e dde5 abbe c8d8 aabe
00000030: c6b9 1bbe 0f4c 473d 4a93 15be eef1 163e
00000040: 7746 a43e f695 95bf f0a4 ce3e d215 9e3e
00000050: 7220 99be b110 b63e 1e4c 9abe f5c6 98be
00000060: 07f3 c83c b3ea 393e 49a9 b93e ffcd 57b9
00000070: dcbd 61bf e697 603f efa3 f1bd 2fd6 2f3e
00000080: 9b8e 943c df5b 8e3c 874a adbf 6cac 97be
00000090: 7e4e e1be 6ad5 073c 2746 ce3e 46cd 0cbe
000000a0: 4a09 9bbf eb50 c23d a018 763e 51f8 71be
000000b0: 6052 683f ba0c bbbd 4eaa 273e 9542 b63e
000000c0: af53 6abe 5c89 ce3e 0ece eebe 5901 07bf
000000d0: cf46 cc3e f52b a1bd e34b 843e cd5f b03e
000000e0: bf42 b5be bf47 df3e 4b1d 053c b9f3 aabd
000000f0: 2219 4a3e 512f 70be 55d8 163e 0e4d a1bd
00000100: 81a5 d93e 5c62 05be d518 9cbc 832f c83e
00000110: b0d8 8f3f a0a3 79bd 261b 2fbf 9336 b13e
00000120: 2a44 573f 6bda c83d 9f9c d13d 2d0f 973e
00000130: 0a42 c7be 3bf1 49bf 89bc 49be 5cf3 acbc
00000140: 8b21 e93f 07ca 8bbe 9f43 cbbe cceb 533f
00000150: 8b2d a73f 5589 50be 089d aa3d 79a6 3bbd
00000160: ec6d d73d 21f7 493f cc6f 8bbd 085d bebe
00000170: ff0b c1be 0ffd 9ebe b827 ccbe 5570 c03e
00000180: a24a 40be 2eca da3e 1f6d 3abe 1e65 6e3a
00000190: 47b7 fabd e890 99be 0c86 ac3d 5368 853d
000001a0: 3188 89be 48fe 623d 79f7 b7bd 7244 85be
000001b0: f3df e2be a38d 4e3d bbb6 9d3e a475 c33e
000001c0: 6fb4 8c3e 4518 6d3e e900 5abe 1b2d 92bd
000001d0: 4b9b 2a3e 1497 243d 11bb 183e 72e2 0c3f
000001e0: f6fd 3e3e ac49 003e 2a8a 1ebe 4461 0dbf
000001f0: c827 653e 4f4b 263e dd8b 843d e5ce 883e
00000200: 5649 bb3d 203a e93d 5669 23be 89c5 d5bb
00000210: 2426 013e 481f 48bd e109 d33c 0efc 29bd
00000220: 1839 30bc 32b1 113f 0b32 5abe d5f1 333e
00000230: 8791 abbc 7068 bdbd d435 7d3d 52fd 543e
00000240: 11f3 7f3e d4b2 963e cb35 3abe 92b0 b53d
00000250: ee7b 9dbe 5226 99be 6503 743e e07e 7c3e
00000260: 4703 2c3e a9ac 833e 7971 793e e1b4 c5be
00000270: 68a4 1ebe 0bfa 81be c79f eb3d 178d 653e
00000280: 3932 6ebe 4bdf 063e 8044 a83d 84a8 fcbe
00000290: 41e2 1d3b 0778 30be 63de 21be 7ba6 213f
000002a0: 0972 b0bd af1f ca3e a326 5bbf 3ecd 23bd
000002b0: ec40 62be 08d5 28bd 4e9b 783d 2353 743e
000002c0: c50f 0dbe 20ab 393f 35b2 96be a756 32be
000002d0: b4e9 e4bd ee3d b8bd c8a6 1e3e e66b ed3e
000002e0: 9313 803d 634c dbbe c3be c8be 01ea 0dbe
000002f0: ffe8 bc3a 77a9 c83e 21ed 8f3e 18ca 193e
00000300: 26c8 d6be 1525 913e 36fd 71bf 8f6a 94be
00000310: ca55 9abe 1a28 10bf cff5 d83d 0a9e cd3d
00000320: 9dbb 80be d404 283f 3415 af3e 4325 da3d
00000330: 7342 c5be d74d 41be a0fe 95be 62cf c43e
00000340: cd67 b5bd a169 6cbe 5370 63be fca6 4e3e
00000350: c2da 62bf 4da6 6f3e c122 2bbf 6ad0 993e
00000360: 6086 40be b58a d03e f2ef 763e 7204 abbe
00000370: 6a24 093e f073 debe 7b5e 2f3d b3d7 80be
00000380: fa9f af3e 9a0f 8cbd 2536 2fbe 1711 8e3e
00000390: c9dd 943f 09fd 553c 3748 e7be 2f4a 903d
000003a0: 67e1 823e 1d9d 03be f1a8 493e e382 943e
000003b0: 68ac eebe b359 40bf 233d 64be 9c2c 2e3f
000003c0: de28 c63e 3984 c43d 4293 e1bd 6641 80bb
000003d0: ca27 283d 0aac 8abe fb7a 6dbe 68e3 5f3d
000003e0: 6868 953e 646d 1f3e b3f9 e83d 1ab8 8ebe
000003f0: 7539 16be 46ff 92be eb25 e3be 42a6 413e

layers.0.bias f4 [128]
0.3040647 0.017195461 -0.101027764 -0.074662745 0.024784748 0.037867032 0.10096166 0.40217268
0.37491965 0.13534592 0.20303808 0.028810246 0.4635583 0.024465133 0.44327635 0.18975817
0.41459006 0.43026608 0.34892705 0.26194912 0.34649757 -0.2908186 0.34864232 0.31683084
-0.18362695 0.0383976 0.1562617 0.056618202 0.25703457 0.21800521 0.40362328 0.1024318
0.010711562 0.3985455 0.32786825 0.06164964 0.3943392 -0.3281207 0.4026907 0.41075432
0.5105129 0.017133579 0.05964436 0.49840623 0.49695447 0.14104246 -0.08299874 0.15043947
-0.27023786 -0.18511714 0.1683293 -0.06855019 0.39124897 0.21324742 0.47427547 0.15560001
0.47329095 0.115323596 0.22139862 -0.17668746 0.62313116 0.116163835 0.29566857 -0.38370958
0.43131065 0.13750988 -0.06435001 0.28797883 0.26601776 0.4500964 -0.03222803 -0.24028887
0.040294603 0.32901666 0.33108062 -0.09069315 0.54762393 -0.1875002 -0.20653018 0.13116285
0.15895367 0.36296064 0.20423394 0.012792489 0.36195493 0.4341086 -0.11222162 0.073478766
0.4687062 0.025461726 0.44685057 0.11830285 0.44301823 0.37114528 0.22678746 0.3190626
0.50698006 0.27499813 0.5118154 0.36147237 0.25635973 0.1261963 -0.15803002 0.39956364
0.13948 -0.21646643 -0.012351315 0.06094711 0.45171264 0.39938354 0.23505145 0.5442915
-0.18379115 0.15160526 0.40348843 0.33706975 0.20484217 0.0003574884 0.21662135 0.3674898
0.040072866 0.15230595 0.27495256 -0.30937034 -0.029773619 0.5004844 0.42376086 0.2214659
00000000: 5eae 9b3e 7fdd 8c3c a5e7 cebd c8e8 98bd
00000010: 6209 cb3c 761a 1b3d fdc4 ce3d 94e9 cd3e
00000020: 78f5 bf3e 1f98 0a3e 37e9 4f3e 7703 ec3c
00000030: 8357 ed3e 1a6b c83c 1ef5 e23e f74f 423e
00000040: 2645 d43e d64b dc3e 91a6 b23e 321e 863e
00000050: 2168 b13e 2de6 94be 3f81 b23e a737 a23e
00000060: b408 3cbe cd46 1d3d 1103 203e 7de8 673d
00000070: 099a 833e c23c 5f3e b6a7 ce3e c3c7 d13d
00000080: 8c7f 2f3c 280e cc3e 59de a73e 5584 7c3d
00000090: d4e6 c93e 70ff a7be 7a2d ce3e 644e d23e
000000a0: f9b0 023f b85b 8c3c a54d 743d 1a2f ff3e
000000b0: d170 fe3e 6f6d 103e 3efb a9bd ce0c 1a3e
000000c0: 9e5c 8abe 598f 3dbe 845e 2c3e 0b64 8cbd
000000d0: c951 c83e 885d 5a3e 3cd4 f23e 9c55 1f3e
000000e0: 3153 f23e c72e ec3d 52b6 623e 8fed 34be
000000f0: 8685 1f3f 4ee7 ed3d df61 973e 9575 c4be
00000100: c0d4 dc3e 64cf 0c3e f0c9 83bd f671 933e
00000110: 7b33 883e 0973 e63e 8a01 04bd 490e 76be
00000120: f40b 253d df74 a83e 6683 a93e 55bd b9bd
00000130: 1531 0c3f 0d00 40be a67c 53be 8e4f 063e
00000140: c0c4 223e fad5 b93e b422 513e 9697 513c
00000150: 2852 b93e 7b43 de3e 73d4 e5bd 097c 963d
00000160: 42fa ef3e 1c95 d03c 99c9 e43e c448 f23d
00000170: 49d3 e23e c106 be3e f93a 683e 2c5c a33e
00000180: 72c9 013f 8ecc 8c3e 5606 033f e812 b93e
00000190: 9541 833e 9a39 013e 9fd2 21be 9b93 cc3e
000001a0: d8d3 0e3e 60a9 5dbe 2b5d 4abc ada3 793d
000001b0: e146 e73e 007c cc3e 54b1 703e b056 0b3f
000001c0: bf33 3cbe 693e 1b3e 0996 ce3e 6894 ac3e
000001d0: 25c2 513e 486d bb39 fdd1 5d3e a027 bc3e
000001e0: 7223 243d 17f6 1b3e 95c6 8c3e ca65 9ebe
000001f0: cee7 f3bc bf1f 003f 2ff7 d83e f5c7 623e

layers.2.weight f4 [128, 128]
0.0309384 0.08398743 -0.25826806 -0.53474087 0.8778997 -0.4355021 -0.13524334 -0.014495557
0.5254883 -0.50487745 0.9780195 0.1971486 0.075060375 0.008878551 -0.016057054 0.055902496
0.08672155 0.13835011 0.07879127 0.06700356 -0.0005779024 0.17003004 -0.038276758 -0.01507881
0.472831 0.33263084 0.34303516 0.16533382 0.903662 -0.44267455 0.113724835 0.1003877
0.3155373 0.25375113 0.23355697 -0.8908427 -0.00096489146 -0.40015835 0.20725013 0.094881564
-0.16711734 -0.365935 0.4266854 -0.026622748 0.624918 0.19835965 0.12248707 0.24507022
-0.15986581 -0.14128835 0.75802505 -0.23332842 0.12377901 -0.09956798 0.18739757 0.11685047
0.06229201 -0.9906695 -0.35061768 -0.3260822 -0.062426157 0.34101292 0.18522853 0.046600096
0.087100014 -0.413673 0.061559983 -0.2598331 -0.02289514 0.14730434 -0.042358294 0.2292815
0.18485858 0.00069138804 0.54338366 -0.34401417 -0.12554711 -0.28884435 0.031349268 0.15999351
0.010549308 0.20435356 -0.042238086 -0.3783387 0.048814457 0.19469467 -0.3260088 0.32203555
0.09290333 -0.43306163 0.38335344 0.15703955 0.119350694 -0.44218445 -0.0048514726 0.099914484
0.4006853 0.050263442 0.5564408 0.5536734 -0.4025213 -0.5629983 -0.30727455 0.48503685
-0.38827804 0.09107786 -0.48924333 0.027173664 0.1867464 0.24943946 -0.5795416 0.13629337
-0.21257266 -0.2606913 0.04425999 0.063573465 0.17320289 0.44424826 -0.846813 -0.005206188
-0.035707094 -0.5454916 0.20975219 0.055684857 0.18542826 -0.0005130254 -0.042646013 0.15798438
0.118084244 0.103245854 -0.37523374 -0.83536434 0.79697454 -0.49651507 -0.12161234 0.052001733
0.75260687 -0.63241684 0.93714476 0.19626865 -0.062310897 -0.026563412 0.100026615 -0.06849135
0.07062896 0.12912773 0.008434428 0.1398851 -0.033727307 0.27318296 0.01206937 -0.088200845
0.60799795 0.25170955 0.6688136 0.16199006 0.95663726 -0.48608035 -0.045381878 0.054972157
0.2008647 0.11555964 0.11486131 -0.99675995 -0.030320344 -0.44362843 0.23356935 0.07727871
-0.19825545 -0.52098674 0.34513062 0.049423218 0.7129196 0.21496232 -0.039205577 0.35669404
-0.35973033 -0.17284594 0.6747236 -0.36169034 0.06013183 0.03270134 0.20868081 -0.023239529
-0.067426756 -1.0987165 -0.65181106 -0.42031065 -0.05895308 0.22382978 0.12671268 -0.08981841
0.054645017 -0.4672178 0.087169886 -0.19999689 0.050079424 0.0678626 -0.018164702 0.32521072
0.19423059 -0.049996387 0.7116395 -0.2787704 -0.07333296 -0.19999115 -0.05543461 0.09327084
0.12647492 0.272727 -0.060638137 -0.32026356 0.06651525 0.017052474 -0.37100682 0.18070546
0.05140796 -0.48925823 0.19683616 0.07460278 -0.061969824 -0.40844187 -0.012656083 0.07828469
0.46302596 -0.013291017 0.5999704 0.6778676 -0.25926912 -0.6125474 -0.39459515 0.24274974
-0.49553832 -0.015932394 -0.5861692 -0.045087256 0.19904561 0.14695539 -0.53257036 -0.09820963
-0.23696259 -0.38653454 -0.012381475 0.059971016 0.19684708 0.5393772 -1.0072004 -0.025280891
0.066174395 -0.7432468 0.12932518 0.07939072 0.27186888 -0.16083342 0.062300578 0.11031543
00000000: 8772 fd3c 9a01 ac3d b63b 84be c7e4 08bf
00000010: 09be 603f 22fa debe 3b7d 0abe c67e 6dbc
00000020: 6786 063f a63f 01bf 7c5f 7a3f 53e1 493e
00000030: 41b9 993d 5877 113c 158a 83bc 04fa 643d
00000040: 119b b13d a7ab 0d3e 515d a13d 2a39 893d
00000050: 607e 17ba 5b1c 2e3e 17c8 1cbd 1d0d 77bc
00000060: e816 f23e 974e aa3e 4ea2 af3e 454d 293e
00000070: 6556 673f 3da6 e2be 91e8 e83d 1198 cd3d
00000080: 1b8e a13e abeb 813e 8f29 6f3e 440e 64bf
00000090: c5f0 7cba 8ee1 ccbe 6139 543e 4451 c23d
000000a0: cf20 2bbe d55b bbbe 8276 da3e f317 dabc
000000b0: a0fa 1f3f cb1e 4b3e 80da fa3d b0f3 7a3e
000000c0: ddb3 23be e5ad 10be ee0d 423f a5ed 6ebe
000000d0: d97f fd3d 4cea cbbd 26e5 3f3e 4d4f ef3d
000000e0: e825 7f3d 849c 7dbf 2984 b3be 3ff4 a6be
000000f0: 92b2 7fbd 3f99 ae3e 8cac 3d3e bedf 3e3d
00000100: 7e61 b23d f3cc d3be 5226 7c3d d808 85be
00000110: 978e bbbc f3d6 163e e47f 2dbd c5c8 6a3e
00000120: 914b 3d3e 443e 353a 311b 0b3f a022 b0be
00000130: 6c8f 00be 68e3 93be 1768 003d 57d5 233e
00000140: 01d7 2c3c 0f42 513e d801 2dbd 9cb5 c1be
00000150: abf1 473d 0a5e 473e a0ea a6be d8e1 a43e
00000160: 1a44 be3d 41ba ddbe e746 c43e face 203e
00000170: 236e f43d 0066 e2be 1af9 9ebb f79f cc3d
00000180: a026 cd3e 0ae1 4d3d e772 0e3f 8abd 0d3f
00000190: 4617 cebe a820 10bf 1753 9dbe c056 f83e
000001a0: 61cc c6be 0787 ba3d 1a7e fabe 4e9b de3c
000001b0: 733a 3f3e 0f6d 7f3e d75c 14bf 7d90 0b3e
000001c0: a6ac 59be 5479 85be f749 353d ce32 823d
000001d0: 195c 313e 8274 e33e bdc8 58bf ac98 aabb
000001e0: 9a41 12bd 56a5 0bbf 47c9 563e ce15 643d
000001f0: e8e0 3d3e 8d7c 06ba 96ad 2ebd a8c6 213e
00000200: 27d6 f13d 9072 d33d a31e c0be 70da 55bf
00000210: 8606 4c3f 3937 febe e40f f9bd c5ff 543d
00000220: d8aa 403f 12e6 21bf b8e8 6f3f a6fa 483e
00000230: b639 7fbd 839b d9bc c1da cc3d 3145 8cbd
00000240: eba5 903d 0f3a 043e 8e30 0a3c 0a3e 0f3e
00000250: a525 0abd a3de 8b3e 9bbe 453c a5a2 b4bd
00000260: c1a5 1b3f 13e0 803e 5e37 2b3f b9e0 253e
00000270: 2ee6 743f 86df f8be 59e2 39bd 7c2a 613d
00000280: 7aaf 4d3e 88aa ec3d 683c eb3d a92b 7fbf
00000290: 5f62 f8bc 4423 e3be ce2c 6f3e 4d44 9e3d
000002a0: 7a03 4bbe 635f 05bf f6b4 b03e 0070 4a3d
000002b0: e681 363f 151f 5c3e 0796 20bd 9aa0 b63e
000002c0: 932e b8be 87fe 30be b0ba 2c3f 7a2f b9be
000002d0: cb4c 763d d7f1 053d 6cb0 553e d360 bebc
000002e0: 0a17 8abd bea2 8cbf 17dd 26bf f532 d7be
000002f0: c978 71bd a233 653e f8c0 013e b7f2 b7bd
00000300: 74d3 5f3d 2c37 efbe 2086 b23d fccb 4cbe
00000310: 1520 4d3d 8cfb 8a3d 24ce 94bc 0582 a63e
00000320: 62e4 463e 03c9 4cbd 022e 363f feba 8ebe
00000330: 972f 96bd 7bca 4cbe 670f 63bd c804 bf3d
00000340: a482 013e e0a2 8b3e b25f 78bd 96f9 a3be
00000350: 2639 883d a1b1 8b3c 9bf4 bdbe da0a 393e
00000360: 2791 523d 0e80 fabe 6b8f 493e 58c9 983d
00000370: 12d4 7dbd 4b1f d1be 765b 4fbc b953 a03d
00000380: bd11 ed3e 91c2 59bc a997 193f bb88 2d3f
00000390: ecbe 84be e8cf 1cbf 6008 cabe 6393 783e
000003a0: 33b7 fdbe a784 82bc 2f0f 16bf 6aad 38bd
000003b0: 9dd2 4b3e 797b 163e 8856 08bf 2122 c9bd
000003c0: 52a6 72be dbe7 c5be acdb 4abc 2ba4 753d
000003d0: 4892 493e a014 0a3f f1eb 80bf df19 cfbc
000003e0: 7186 873d 6c45 3ebf d26d 043e 9a97 a23d
000003f0: 6632 8b3e 84b1 24be e42e 7f3d 0eed e13d

layers.2.bias f4 [128]
0.039133415 0.06036642 -0.02701003 -0.016126497 -0.002126669 0.09320933 0.15970652 0.0098771425
-0.011142506 0.1219629 -0.0009159856 0.04215364 0.013659596 0.040037703 0.13086233 -0.07048303
0.33243492 -0.098196894 0.066022515 0.04179308 0.027639138 0.23402861 0.14787807 0.098385274
0.23363072 -0.025264995 0.2555162 0.04141802 0.06617738 0.21492685 0.16244404 -0.03686748
0.0592257 0.010897176 -0.009706772 0.042633925 -0.06286107 0.015211674 -0.0834639 0.0008792301
0.086809844 -0.10387421 0.10869832 0.11218494 -0.015426314 -0.007894419 -0.04439533 -0.090873465
-0.10734845 0.039593183 -0.010350158 0.095927335 0.03961622 0.014851297 -0.043182835 0.1676727
0.20240797 -0.03208693 0.11817392 -0.06863801 0.18882868 0.097193204 -0.009174425 0.11089313
-0.007788829 0.07357057 0.11940583 0.3524192 0.04440686 -0.013631182 0.015749592 0.046773456
0.074238405 -0.00930831 0.004290133 -0.08718706 0.17218968 -0.022091513 -0.009204753 -0.03843248
0.17330618 0.025753034 0.12136728 0.062655754 -0.102553114 0.083697975 0.043178424 -0.07941317
0.019145025 0.04335749 0.4178176 0.017487893 -0.052877974 0.07009043 -0.005313082 0.037118204
0.064633906 0.034811772 0.11399583 0.078126356 -0.08947072 -0.09033597 0.19951852 0.12507424
-0.02298443 -0.07221392 0.06184872 0.009381785 0.07729614 0.029044902 0.0653427 -0.039880976
0.038249966 -0.019962812 0.05439888 0.050461955 0.11597109 -0.026656277 -0.05061642 -0.027105281
-0.0025063243 0.28332296 0.1557636 -0.02371921 -0.027146395 0.2148363 -0.0660571 -0.047381155
00000000: 5c4a 203d c742 773d 2344 ddbc b71b 84bc
00000010: 965f 0bbb 89e4 be3d 1b8a 233e bdd3 213c
00000020: 0f8f 36bc afc7 f93d c11e 70ba 4ca9 2c3d
00000030: 80cc 5f3c 93fe 233d c600 063e 6859 90bd
00000040: e934 aa3e 741b c9bd d036 873d 382f 2b3d
00000050: 796b e23c 32a5 6f3e 596d 173e 387e c93d
00000060: e43c 6f3e 89f8 cebc 05d3 823e f1a5 293d
00000070: 0288 873d c915 5c3e bb57 263e 5b02 17bd
00000080: a696 723d 128a 323c 2709 1fbc e9a0 2e3d
00000090: 4ebd 80bd 633a 793c 1fef aabd 227c 663a
000000a0: 5cc9 b13d 00bc d4bd 3a9d de3d 38c1 e53d
000000b0: a7be 7cbc 9857 01bc e1d7 35bd de1b babd
000000c0: 81d9 dbbd 762c 223d b693 29bc 8d75 c43d
000000d0: 9e44 223d db52 733c 7ce0 30bd 64b2 2b3e
000000e0: 0944 4f3e 966d 03bd 2b05 f23d 1692 8cbd
000000f0: 4e5c 413e 3b0d c73d 5450 16bc f01b e33d
00000100: 6f39 ffbb 2bac 963d 0b8b f43d 4a70 b43e
00000110: f8e3 353d 5255 5fbc 4a05 813c 8695 3f3d
00000120: 4e0a 983d e281 18bc 3e94 8c3b 218f b2bd
00000130: 7e52 303e 43f9 b4bc 88cf 16bc 606b 1dbd
00000140: 2d77 313e 07f8 d23c 698f f83d a951 803d
00000150: 5e07 d2bd d869 ab3d dcdb 303d 5fa3 a2bd
00000160: 07d6 9c3c a097 313d 30ec d53e c542 8f3c
00000170: 9396 58bd 928b 8f3d 5d19 aebb 4209 183d
00000180: c85e 843d ca96 0e3d a576 e93d b600 a03d
00000190: 6d3c b7bd 1102 b9bd 954e 4c3e 7613 003e
000001a0: d849 bcbc e4e4 93bd 1555 7d3d 0fb6 193c
000001b0: 704d 9e3d 93ef ed3c 65d2 853d 3c5a 23bd
000001c0: ffab 1c3d 0d89 a3bc 5cd1 5e3d 32b1 4e3d
000001d0: 4082 ed3d 445e dabc 2a53 4fbd e50b debc
000001e0: 2541 24bb b50f 913e 7e80 1f3e ca4e c2bc
000001f0: 1e62 debc 0cfe 5b3e f248 87bd be12 42bd

layers.4.weight f4 [4, 128]
0.52638733 0.4161351 0.0059834407 0.32657412 -0.033032127 0.34028345 0.37132272 0.18511817
0.04621505 0.36305362 0.25874108 0.25089103 0.12322702 0.3300362 0.36426806 -0.06222525
-0.35768658 -0.04860176 0.35394996 0.36943483 -0.12875013 -0.538778 -0.07900278 0.25395712
-0.7098269 0.15761769 -0.2028492 0.016728353 0.27335522 -0.45176962 0.36027268 0.077446096
0.28748488 -0.033416454 -0.08488734 0.0544151 -0.019036772 0.23385146 -0.022049308 0.3885838
0.35409895 0.04873148 0.3052881 0.2649736 0.008191683 0.2670929 -0.00959329 -0.064835265
0.031791966 -0.01814095 0.082733355 0.4503264 0.32984373 -0.009152662 -0.016724829 -0.43117255
-0.40813565 0.05369715 0.2433605 -0.06384494 0.3361414 0.20501329 0.0591268 0.3429087
-0.027045222 0.35133782 0.39409748 -0.07773454 0.062471393 0.06552478 0.042826697 0.25636348
-0.51560456 0.018631421 0.40626112 0.067957684 0.26623222 0.044493135 0.011160307 -0.03828919
0.42492917 -0.06905804 0.4218785 0.0033275972 -0.010990539 0.31926003 0.3033067 -0.020424657
0.02377639 -0.043384977 -0.2774948 0.009251389 0.34611964 0.27191254 0.26657957 0.29803506
0.38421798 0.33139962 0.26018026 0.38779682 -0.07309761 0.0030217816 -0.5196834 0.47415376
-0.0054942938 -0.029449193 0.31180766 0.564497 0.37483925 0.25882056 0.3838946 0.034317404
0.03817724 0.08300182 0.30977145 0.04687192 0.25335085 0.05988163 -0.028480627 0.2354862
0.029859839 -0.20079394 0.3898426 -0.06642777 0.05292306 -0.5539437 0.26613972 0.08785018
0.5081668 0.4628402 0.03377029 0.2561397 -0.03676886 0.2090768 0.25743237 0.2892148
-0.039943706 0.28813967 0.45659968 0.3438935 0.45587566 0.44696736 0.43446162 -0.019989228
-0.5062727 -0.07679056 -0.19054355 0.29016784 0.15706839 -0.44316897 0.010824651 0.34053695
-0.6378269 0.39673862 -0.50572485 -0.31916568 0.31037655 -0.4062222 0.30007774 -0.03368989
0.3233945 0.03375108 -0.38197136 -0.008918083 -0.058845334 0.22664522 0.5323643 0.03163428
0.3083556 -0.056359693 0.21047096 0.36463556 -0.09867956 0.28877962 -0.048667986 0.024818
-0.0023106588 -0.041284453 0.013444149 0.23442335 0.30725846 -0.044171978 -0.05862264 -0.18796375
-0.35170457 -0.005025885 0.44407248 -0.00033225238 0.36427155 0.36392647 -0.08006707 0.22975586
0.0004212156 0.22919719 0.12995033 0.16729861 -0.10374868 -0.0036412817 0.06328524 0.2421809
-0.3580429 0.025141018 0.16565946 -0.06507675 -0.43547612 0.03657318 0.027823409 0.022297822
0.17286152 0.051532097 0.1641009 -0.31545198 0.0060495897 0.29800206 0.275427 0.05387936
-0.06540425 0.031899955 -0.39111596 -0.0126023665 0.6284585 0.3821178 0.3193232 0.38349432
0.17852817 0.3178379 0.34027815 0.32874164 0.037302114 0.050081823 -0.20507208 0.1991698
-0.04428326 -0.0052423966 0.36341736 -0.36338815 0.19931395 0.38236377 0.45049512 -0.092071384
-0.01632772 -0.024639849 0.29560965 -0.045112763 0.38859934 -0.07412482 -0.027907925 -0.22684874
0.006493935 -0.32999632 0.2919738 0.0148217995 -0.0559285 -0.4523792 0.40507936 0.0301528
00000000: 52c1 063f a90f d53e bd10 c43b b934 a73e
00000010: b24c 07bd a239 ae3e 031e be3e 9e8f 3d3e
00000020: fe4b 3d3d 2ae2 b93e b679 843e ca74 803e
00000030: 735e fc3d 81fa a83e 5881 ba3e e7df 7ebd
00000040: b222 b7be a412 47bd ee38 b53e 9026 bd3e
00000050: 13d7 03be 5bed 09bf 36cc a1bd ab06 823e
00000060: 37b7 35bf 8866 213e b3b7 4fbe e609 893c
00000070: 37f5 8b3e 594e e7be a975 b83e 0f9c 9e3d
00000080: 3831 933e b1df 08bd 6ad9 adbd 5ee2 5e3d
00000090: 01f3 9bbc c276 6f3e c0a0 b4bc 75f4 c63e
000000a0: 754c b53e a99a 473d b94e 9c3e 9faa 873e
000000b0: 6936 063c 67c0 883e 2d2d 1dbc 5ac8 84bd
000000c0: 4b38 023d 549c 94bc 1b70 a93d 2f91 e63e
000000d0: 47e1 a83e 0cf5 15bc 8202 89bc a6c2 dcbe
000000e0: 28f7 d0be 8bf1 5b3d 7f33 793e 23c1 82bd
000000f0: ba1a ac3e 01ef 513e f22e 723d bb91 af3e
00000100: f18d ddbc 8de2 b33e 25c7 c93e 4933 9fbd
00000110: 01e2 7f3d db31 863d 0c6b 2f3d 1342 833e
00000120: a9fe 03bf eca0 983c 7501 d03e 662d 8b3d
00000130: 974f 883e 6f3e 363d b8d9 363c 20d5 1cbd
00000140: 5190 d93e 4d6e 8dbd 7500 d83e d113 5a3b
00000150: a911 34bc 0d76 a33e 044b 9b3e 9c51 a7bc
00000160: b4c6 c23c 72b4 31bd cc13 8ebe 2393 173c
00000170: 9836 b13e 1f38 8b3e 1e7d 883e 0d98 983e
00000180: 38b8 c43e 36ad a93e 5936 853e 4e8d c63e
00000190: 33b4 95bd 1509 463b f909 05bf 48c4 f23e
000001a0: 7a09 b4bb 6f3f f1bc 41a5 9f3e e082 103f
000001b0: eeea bf3e 2184 843e d58d c43e 6890 0c3d
000001c0: bd5f 1c3d dcfc a93d 5d9a 9e3e c5fc 3f3d
000001d0: 34b7 813e 7146 753d 3450 e9bc 4b23 713e
000001e0: 9f9c f43c ed9c 4dbe 7399 c73e 480b 88bd
000001f0: dac5 583d 41cf 0dbf 7743 883e ccea b33d
00000200: 3817 023f 64f9 ec3e b752 0a3d be24 833e
00000210: f29a 16bd 3b18 563e 2dce 833e f613 943e
00000220: 039c 23bd 0b87 933e 6fc7 e93e cf12 b03e
00000230: 8968 e93e e8d8 e43e c171 de3e 73c0 a3bc
00000240: 169b 01bf 5e44 9dbd d91d 43be e190 943e
00000250: 89d6 203e 0be7 e2be e159 313c dc5a ae3e
00000260: a048 23bf 5321 cb3e 2f77 01bf af69 a3be
00000270: ade9 9e3e 5bfc cfbe caa3 993e 69fe 09bd
00000280: f793 a53e 933e 0a3d c091 c3be 271d 12bc
00000290: ce07 71bd af15 683e 0749 083f f292 013d
000002a0: c9e0 9d3e 6cd9 66bd b385 573e 83b1 ba3e
000002b0: 8218 cabd ecda 933e 1558 47bd 1e4f cb3c
000002c0: 6c6e 17bb e319 29bd d944 5c3c ad0c 703e
000002d0: fb50 9d3e aded 34bd 4b1e 70bd 9279 40be
000002e0: 9f12 b4be 2eb0 a4bb 785d e33e 2932 aeb9
000002f0: cd81 ba3e 9254 ba3e 34fa a3bd 1f45 6b3e
00000300: 9ad6 dc39 abb2 6a3e b311 053e 5450 2b3e
00000310: 307a d4bd 92a2 6ebb b19b 813d 45fe 773e
00000320: 6651 b7be 89f4 cd3c a2a2 293e f646 85bd
00000330: baf6 debe c2cd 153d ebed e33c eca9 b63c
00000340: 9c02 313e 5213 533d 110a 283e ec82 a1be
00000350: a33b c63b ba93 983e c504 8d3e 9bb0 5c3d
00000360: aaf2 85bd 87a9 023d 5a40 c8be 287a 4ebc
00000370: a8e2 203f f2a4 c33e 557e a33e 5e59 c43e
00000380: 17d0 363e a6bb a23e f038 ae3e d350 a83e
00000390: 1aca 183d 9922 4d3d 6afe 51be 2bf3 4b3e
000003a0: 5d62 35bd 69c8 abbb d711 ba3e 030e babe
000003b0: f518 4c3e 2fc5 c33e 4ca7 e63e ec8f bcbd
000003c0: b6c1 85bc 82d9 c9bc 265a 973e 29c8 38bd
000003d0: 7ef6 c63e c1ce 97bd 299f e4bc 094b 68be
000003e0: 13cb d43b 47f5 a8be 977d 953e 22d7 723c
000003f0: 4815 65bd 3f9e e7be 9066 cf3e 0103 f73c

layers.4.bias f4 [4]
0.068437636 -0.11387941 0.22637637 -0.0039666207
00000000: 0829 8c3d 9c39 e9bd 35cf 673e 6dfa 81bb
